…
/usr/local/lib/python2.7/dist-packages/h5py/__init__.py:36: FutureWarning: Conversion of the second argument of issubdtype from `float` to `np.floating` is deprecated. In future, it will be treated as `np.float64 == np.dtype(float).type`.
  from ._conv import register_converters as _register_converters
Using TensorFlow backend.
2018-08-31 12:20:09.666662: I tensorflow/core/platform/cpu_feature_guard.cc:140] Your CPU supports instructions that this TensorFlow binary was not compiled to use: FMA
_________________________________________________________________
Layer (type)                 Output Shape              Param #   
=================================================================
input_1 (InputLayer)         (None, 7, 7, 1664)        0         
_________________________________________________________________
conv2d_1 (Conv2D)            (None, 7, 7, 64)          106496    
_________________________________________________________________
batch_normalization_1 (Batch (None, 7, 7, 64)          192       
_________________________________________________________________
activation_1 (Activation)    (None, 7, 7, 64)          0         
_________________________________________________________________
dropout_1 (Dropout)          (None, 7, 7, 64)          0         
_________________________________________________________________
flatten_1 (Flatten)          (None, 3136)              0         
_________________________________________________________________
dense_1 (Dense)              (None, 4)                 12548     
=================================================================
Total params: 119,236
Trainable params: 119,108
Non-trainable params: 128
_________________________________________________________________
None
('CNV-6294785-2.jpeg', 0, 'CNV')
('CNV-6875371-1.jpeg', 0, 'CNV')
('CNV-6851127-1.jpeg', 0, 'CNV')
('CNV-6294785-1.jpeg', 0, 'CNV')
('CNV-6668596-1.jpeg', 0, 'CNV')
('CNV-6652117-1.jpeg', 0, 'CNV')
…
